ModelDesign/saved_models/IEGM_net_Sf1bz256lr0.01.pkl (torch, 20918 bytes, 32 tensors)

weight f4 [2, 1, 6, 1]
0.5632747 0.5361434 0.8783547 0.92679805 1.1920916 0.3508822 0.18517336 1.2472343
-0.38000065 0.52535003 0.30714884 1.2002076
00000000: c532 103f b240 093f dbdb 603f a342 6d3f
00000010: 7596 983f d5a6 b33e 169e 3d3e 60a5 9f3f
00000020: 728f c2be 577d 063f 9d42 9d3e 67a0 993f

bias f4 [2]
0.54651856 0.30047736
00000000: a4e8 0b3f 2bd8 993e

weight f4 [2]
1.2954168 1.0257671
00000000: 38d0 a53f 564c 833f

bias f4 [2]
0.1441415 -0.15331787
00000000: d499 133e 5cff 1cbe

running_mean f4 [2]
0.7089242 0.4656812
00000000: 0e7c 353f c46d ee3e

running_var f4 [2]
0.62883663 0.5027113
00000000: 70fb 203f b0b1 003f

weight f4 [3, 2, 5, 1]
-1.5882524 -0.13209535 -0.1028031 -0.026472623 -0.357769 -0.44717845 -0.7688942 -0.005770033
-0.6176708 -0.96168476 -0.15159285 -0.098159224 0.40049967 1.1788486 -0.21432488 -0.70250404
0.38412264 0.99101573 0.27996093 -0.08777827 0.67012316 0.3609503 -0.020260967 -1.2424839
-1.057874 0.29117045 0.011783145 -0.90303904 -0.75698155 -0.32947046
00000000: db4b cbbf 0144 07be 6f8a d2bd 1ddd d8bc
00000010: 802d b7be 93f4 e4be 40d6 44bf 8c12 bdbb
00000020: ac1f 1ebf f930 76bf 283b 1bbe b407 c9bd
00000030: 4b0e cd3e 83e4 963f fb77 5bbe 4ed7 33bf
00000040: b9ab c43e 35b3 7d3f 0a57 8f3e 18c5 b3bd
00000050: 318d 2b3f 7ace b83e 54fa a5bc b609 9fbf
00000060: 6a68 87bf 4b14 953e 180e 413c 912d 67bf
00000070: 8bc9 41bf 5ab0 a8be

bias f4 [3]
0.0373919 1.0088565 1.5623015
00000000: 4028 193d 3622 813f 7ff9 c73f

weight f4 [3]
1.3733902 1.1555749 2.3379872
00000000: 40cb af3f e1e9 933f 95a1 1540

bias f4 [3]
-0.46718514 0.4615882 -0.22770134
00000000: e432 efbe 4a55 ec3e 8a2a 69be

running_mean f4 [3]
1.2382306 1.2923706 2.4415047
00000000: 577e 9e3f 666c a53f 9d41 1c40

running_var f4 [3]
0.9005159 5.9442544 3.6383395
00000000: 3688 663f 5537 be40 8eda 6840

weight f4 [5, 3, 4, 1]
0.28122067 -0.7923263 0.31360537 0.38959143 0.47039136 -1.0117474 0.28427693 0.8917756
0.0648652 1.074286 -1.2286807 0.5511608 0.32127544 1.0094789 1.580099 0.83082867
-0.76027036 -0.40219152 -0.38383362 -0.27404082 0.07299922 0.37815276 0.35586232 0.3098662
0.28992322 -0.22415416 -0.6419914 -0.4856653 0.13614182 0.14520183 0.1361153 -0.078456596
-0.7770827 -0.87963223 -1.0190167 -0.36725545 -0.6045254 0.5342179 -0.09544671 -0.34408855
-1.1375021 0.2622031 0.398173 -1.0076649 1.2162213 -0.927827 0.1970101 0.74550587
-1.6466085 -0.902638 0.4769652 0.8504716 -0.23122342 -0.3979033 -0.20260395 -0.5252246
-0.20408057 0.24232696 0.7919595 0.89310956
00000000: 28fc 8f3e e5d5 4abf e290 a03e 8778 c73e
00000010: 23d7 f03e f080 81bf bf8c 913e 684b 643f
00000020: 0cd8 843d 3482 893f 6945 9dbf e018 0d3f
00000030: 377e a43e 9b36 813f af40 ca3f 30b1 543f
00000040: 14a1 42bf 0cec cdbe d785 c4be 144f 8cbe
00000050: 9d80 953d 3d9d c13e 9633 b63e c8a6 9e3e
00000060: d170 943e ab88 65be 8c59 24bf 1fa9 f8be
00000070: c368 0b3e caaf 143e cf61 0b3e daad a0bd
00000080: e4ee 46bf 942f 61bf 246f 82bf e808 bcbe
00000090: 2dc2 1abf 81c2 083f 9179 c3bd 602c b0be
000000a0: ab99 91bf 7c3f 863e 55dd cb3e 2afb 80bf
000000b0: 24ad 9b3f 1286 6dbf 04bd 493e 79d9 3e3f
000000c0: 11c4 d2bf 4913 67bf c834 f43e 82b8 593f
000000d0: d5c5 6cbe fbb9 cbbe 6977 4fbe 1f75 06bf
000000e0: 7ffa 50be 8f24 783e dcbd 4a3f d4a2 643f

bias f4 [5]
-0.00531119 -0.20771843 -0.79016274 0.042128745 -0.0032962863
00000000: 7e09 aebb 24b4 54be 1b48 4abf 318f 2c3d
00000010: 8206 58bb

weight f4 [5]
1.406653 0.7634397 0.7483961 1.5278331 0.9710263
00000000: 350d b43f c970 433f e396 3f3f 0990 c33f
00000010: 2e95 783f

bias f4 [5]
0.037680186 0.41579103 0.0858903 -0.14470251 -0.40997243
00000000: 8a56 1a3d 90e2 d43e 41e7 af3d e52c 14be
00000010: e8e7 d1be

running_mean f4 [5]
1.776654 0.57555187 1.563706 1.6982422 1.2151704
00000000: 6669 e33f 5e57 133f 8527 c83f 0060 d93f
00000010: b48a 9b3f

running_var f4 [5]
10.715935 3.5725958 7.520703 12.022319 6.245977
00000000: 7874 2b41 69a5 6440 99a9 f040 6b5b 4041
00000010: 0bdf c740

weight f4 [10, 5, 4, 1]
-0.36675242 -0.3847205 -0.74651575 -0.7117519 0.77067494 0.21496114 0.52667844 0.7022819
0.056444727 0.27424747 0.22904365 0.3259306 -0.47514677 -1.0815977 -0.6722144 -0.8058231
0.30433977 0.18298313 0.5729391 0.51700526 0.6673855 1.026513 -0.037489872 0.09773675
-0.15927894 -0.46107906 -0.47841555 -0.9074639 0.100491464 -0.20787908 -0.2528901 0.06785861
0.5343818 0.15712802 0.8026284 1.0061398 -0.03324945 0.1504259 -0.6074113 0.28606737
-1.0393707 -0.7629552 -0.71350354 -0.67216474 0.34895226 0.08625572 0.16543026 0.21024296
-0.14904484 -0.09006118 0.0022931278 0.24341597 -0.70683944 -1.0954007 -0.6567609 -0.79079646
0.36661756 0.6051654 0.7342686 0.26701093 0.0044499706 0.32506642 0.37886176 0.6522251
-0.13188338 -0.39954516 -0.40478292 -0.32688487 -0.39318302 -0.18464974 -0.42811802 -0.29097593
0.041891437 0.48616216 0.69360036 0.84084445 -0.4082852 -0.7616614 -0.5142892 -0.49208143
-0.7541365 0.48202646 0.0049475846 -0.37669095 0.24668069 0.56323576 0.8713523 -0.2505085
0.934647 1.2222493 0.66718835 1.4976047 -0.3877812 -0.38105696 -0.022396216 -0.17618857
-0.1749032 1.7610954 1.1342694 0.5367583 0.77691066 0.42783177 0.2217878 1.31953
0.03326191 -0.11120608 -0.6684762 -0.9738958 -0.36573836 -0.6620817 -0.36125717 -0.5679466
0.17739844 0.99177074 0.6028316 0.9472752 -0.07029317 -1.0174149 -0.063434005 0.09400598
0.36963978 0.4813008 -0.5115897 -0.5202285 -0.9764075 -0.15797664 -0.0583192 0.20497862
-0.72127306 -0.786442 -0.83860433 -0.30509204 0.44997776 0.75237834 -0.08431576 -0.40835124
-0.9874541 -0.5680882 -0.2341816 -0.4848928 0.56434715 -0.8911117 -0.37402183 -0.21516295
-0.47017682 -0.9728048 -0.93505275 -0.5613085 0.07635874 -0.08091006 -0.08949305 -0.61992216
0.7992029 0.28100199 -0.6377747 -0.016488971 -0.047402784 -0.1803726 0.18315208 -0.346774
0.62466246 0.5319046 1.1131772 0.32139966 -0.55070806 -0.7900247 -0.7262055 -0.5430335
-0.017225305 -0.45330936 -0.35879955 -0.20872599 -0.3200403 0.6955679 1.0690159 -0.18442982
0.19726309 -0.05908617 -0.3823579 0.7208418 -0.25050166 -0.13765249 0.79341936 -0.93125546
-0.62662125 -0.9248695 -0.85816926 -0.74263775 -1.2536827 0.21041924 -0.9042629 -0.7595802
0.83969784 0.7653199 0.49978194 0.77036744 0.08723636 -0.8309837 -0.51553327 -0.41161528
00000000: f9c6 bbbe 16fa c4be a81b 3fbf 5f35 36bf
00000010: f44a 453f c61e 5c3e 66d4 063f bfc8 333f
00000020: 9632 673d 2a6a 8c3e 6b8a 6a3e 60e0 a63e
00000030: 7046 f3be cb71 8abf 3e16 2cbf 6c4a 4ebf
00000040: 6cd2 9b3e ee5f 3b3e 23ac 123f 755a 043f
00000050: c7d9 2a3f c764 833f fb8e 19bd 352a c83d
00000060: 051a 23be 8e12 ecbe e2f2 f4be 8e4f 68bf
00000070: 78ce cd3d 41de 54be d07a 81be 74f9 8a3d
00000080: 3fcd 083f 2be6 203e 0e79 4d3f 30c9 803f
00000090: 9330 08bd 3f09 1a3e 4f7f 1bbf 6c77 923e
000000a0: 190a 85bf 0851 43bf 2ba8 36bf fd12 2cbf
000000b0: dfa9 b23e d7a6 b03d 8d66 293e ee49 573e
000000c0: 369f 18be ff71 b8bd 4d48 163b 0942 793e
000000d0: 6ef3 34bf 1736 8cbf 7b21 28bf a371 4abf
000000e0: 4cb5 bb3e 1fec 1a3f 07f9 3b3f a8b5 883e
000000f0: 0fd1 913b 1b6f a63e 2bfa c13e 39f8 263f
00000100: 700c 07be 2f91 ccbe b53f cfbe 745d a7be
00000110: 494f c9be d214 3dbe 4932 dbbe ccfa 94be
00000120: 5b96 2b3d 3fea f83e cb8f 313f 9541 573f
00000130: c20a d1be 3efc 42bf 75a8 03bf 19f2 fbbe
00000140: 170f 41bf 2ccc f63e 591f a23b a3dd c0be
00000150: dd99 7c3e 3830 103f f210 5f3f a642 80be
00000160: 0745 6f3f aa72 9c3f dbcc 2a3f 83b1 bf3f
00000170: 428b c6be e619 c3be 4578 b7bc c76a 34be
00000180: d319 33be 936b e13f bd2f 913f fe68 093f
00000190: 9ee3 463f c40c db3e 571c 633e 5ce6 a83f
000001a0: a43d 083d 03c0 e3bd 4221 2bbf 3c51 79bf
000001b0: 0f42 bbbe 307e 29bf b3f6 b8be f364 11bf
000001c0: f0a7 353e b0e4 7d3f 2c53 1a3f a180 723f
000001d0: def5 8fbd a73a 82bf b0e9 81bd 3586 c03d
000001e0: 6d41 bd3e 0f6d f63e 8bf7 02bf b22d 05bf
000001f0: d8f5 79bf a1c4 21be 1de0 6ebd eae5 513e
00000200: 5aa5 38bf 4354 49bf c6ae 56bf 0635 9cbe
00000210: 7c63 e63e de9b 403f bead acbd 6a13 d1be
00000220: cbc9 7cbf 3a6e 11bf 4dcd 6fbe de43 f8be
00000230: 0e79 103f e51f 64bf ca7f bfbe ad53 5cbe
00000240: 04bb f0be bc09 79bf 9e5f 6fbf eab1 0fbf
00000250: f961 9c3d 2cb4 a5bd 2248 b7bd 38b3 1ebf
00000260: 9098 4c3f 7edf 8f3e 3445 23bf e113 87bc
00000270: 6c29 42bd 98b3 38be 388c 3b3e 5d8c b1be
00000280: e1e9 1f3f e62a 083f 977c 8e3f 7f8e a43e
00000290: 34fb 0cbf 0f3f 4abf 9be8 39bf 3e04 0bbf
000002a0: 151c 8dbc 2a18 e8be 93b4 b7be 44bc 55be
000002b0: 52dc a3be bd10 323f 83d5 883f 2cdb 3cbe
000002c0: 56ff 493e 5704 72bd 6ac4 c3be 1789 383f
000002d0: c141 80be c6f4 0cbe 881d 4b3f c266 6ebf
000002e0: 406a 20bf 3fc4 6cbf fbb0 5bbf 821d 3ebf
000002f0: ad78 a0bf 2478 573e c67d 67bf d973 42bf
00000300: 70f6 563f 01ec 433f 6be3 ff3e cd36 453f
00000310: faa8 b23d 59bb 54bf fdf9 03bf 3dbf d2be

bias f4 [10]
-0.032159433 -2.189869 -0.70299506 0.93009496 -0.80478716 -1.4256889 0.54874015 -1.0453243
-2.266474 -1.1640363
00000000: 9cb9 03bd d026 0cc0 7cf7 33bf b41a 6e3f
00000010: 8806 4ebf f97c b6bf 3c7a 0c3f 30cd 85bf
00000020: e90d 11c0 24ff 94bf

weight f4 [10]
0.80701894 1.4093293 1.4070032 1.2452663 1.2599558 1.7806277 1.0362879 0.5481281
1.9087809 1.572974
00000000: cb98 4e3f e764 b43f ae18 b43f e364 9f3f
00000010: 3b46 a13f 9ceb e33f 15a5 843f 2052 0c3f
00000020: ef52 f43f 3657 c93f

bias f4 [10]
-0.53149 -0.15321472 -0.7736914 0.4790195 0.4499915 0.48622143 -0.012609234 0.22011216
0.17044608 0.42202
00000000: bb0f 08bf 52e4 1cbe a410 46bf 0b42 f53e
00000010: 4965 e63e 04f2 f83e f696 4ebc 1565 613e
00000020: 6b89 2e3e 0113 d83e

running_mean f4 [10]
1.8318261 0.45056638 1.1720603 1.3120184 0.9522738 0.7452939 1.4949257 0.0524394
0.45965496 0.38536948
00000000: 4779 ea3f a3b0 e63e 1206 963f 38f0 a73f
00000010: 37c8 733f 95cb 3e3f ba59 bf3f b2ca 563d
00000020: e557 eb3e 264f c53e

running_var f4 [10]
3.0288057 2.0864139 1.7076926 3.6926618 5.133399 3.5517848 1.928951 0.073191404
2.3576717 1.3865867
00000000: f4d7 4140 ce87 0540 ac95 da3f 9254 6c40
00000010: ce44 a440 7150 6340 dee7 f63f 60e5 953d
00000020: 18e4 1640 ac7b b13f

weight f4 [10, 10, 4, 1]
-0.3482888 -0.383164 -0.45133266 0.014876525 -1.1250551 -1.9529911 -1.7216539 -0.53111154
-0.37214622 -0.3189378 -0.06718473 0.14282848 0.5621428 -0.16992772 0.053559475 0.16087681
-1.3890065 -1.0383432 -0.76397794 -1.2450927 -0.026155971 -1.2327281 -0.8143908 -0.046834752
-0.0301978 -0.26677102 -0.036231227 -0.1717912 -0.4988668 -0.039672084 -0.046197433 -0.24278261
-0.5181281 -1.4952995 -1.8808442 -0.6704406 0.18411922 -1.2424678 -0.0128865875 0.2309913
0.37516892 -0.33680066 -0.50468063 0.7221121 -0.022458572 -0.05469566 -0.07842896 0.114132114
1.2606665 0.6488951 0.50650316 1.0517144 -0.13539422 -0.48303193 -0.5553292 -0.7859299
-0.46948 -0.26107907 -0.681536 -0.68150544 -0.2120477 -0.04405152 -0.19325367 -0.16952056
-0.6269572 -0.113029696 -0.7143852 0.15386508 -1.5330818 0.37160948 0.1682938 0.2570964
0.19404192 0.0178259 -0.23618197 -0.2942645 0.004018071 -0.20341547 0.18622938 -0.79672176
-0.029451566 0.023266397 0.057853613 0.07481191 -0.04905941 0.15479353 0.22182906 0.24106969
-0.037319772 0.2467488 -0.021901403 0.09987146 -0.17390144 0.2928494 -0.08802848 -0.18853544
-0.23471707 -0.29228467 -0.2857463 -0.367729 -0.31464857 0.33025208 -0.3715627 -0.0460237
0.027044043 0.14138693 0.46134967 0.19976111 0.20968446 0.21828544 0.15089162 0.06900818
0.15173787 0.49273464 0.08301744 0.0032863142 -0.09340973 -0.057065044 0.30141994 -0.19157514
0.04719856 0.84664166 -0.3021121 -0.9503533 0.5727835 0.58515984 0.21110746 0.38513887
0.24423245 1.4030787 -0.21283863 -1.7865623 0.62803847 -0.036375657 0.22146364 0.42617053
-0.6379111 -0.15660036 -0.26837802 -0.45771167 1.0478196 0.7217208 -0.00016979876 0.19858977
0.20897871 -0.07932121 -0.010482966 0.6999559 0.8186423 0.070278525 -0.11443149 -0.35790974
0.61097103 0.6679462 0.28646746 0.45161995 0.66283077 0.7572945 -0.10012793 -0.045082547
-0.555026 0.7213609 0.34323457 -0.86566323 0.98100996 1.0884963 0.14027257 0.8340958
-1.1751436 0.51735365 0.13050537 -1.1239258 0.8444372 0.060450267 -0.050788477 0.9706148
-0.6956557 0.045880638 -0.3076241 -0.45784974 0.5014843 0.20687407 -0.17066818 0.7484301
0.703053 -0.40540206 -0.042451434 -0.7051751 0.21137315 -0.11584075 -0.03660382 -0.013716441
0.43366295 0.9425344 0.3117919 0.53108686 -0.06271573 0.3939024 -0.28134274 -0.095293306
0.62760746 0.17381467 -0.06811904 1.3796474 -0.2538002 0.13274123 -0.17944688 -0.15827678
1.1348101 0.4700326 0.45451468 1.1180582 -0.3812997 -0.6159067 -0.59944147 -0.65267134
-0.17032918 0.1759092 0.3165268 -0.037310757 -0.37294358 -0.42291063 -0.2011809 -0.49061888
-0.66982275 -0.21138237 -0.8593991 0.00899341 -1.1700681 -0.19420762 0.2692214 0.00077515864
-0.010533322 -0.047593098 -0.19806124 -0.42126068 -0.4973584 -0.18341117 -0.17673999 -0.4214298
-1.6142718 0.43338996 0.60720366 -0.54196775 0.1759317 0.14781007 -0.4125815 0.5378906
-1.8141366 -0.0046034358 0.9049909 0.08872544 0.9462181 -0.259401 -1.2079043 0.96090513
00000000: e952 b2be 122e c4be 1315 e7be abbc 733c
00000010: ce01 90bf 9dfb f9bf 285f dcbf edf6 07bf
00000020: f389 bebe d14b a3be 2698 89bd a141 123e
00000030: 97e8 0f3f 8801 2ebe 2e61 5b3d e4bc 243e
00000040: f7ca b1bf 6ee8 84bf 0f94 43bf 335f 9fbf
00000050: 0c45 d6bc 09ca 9dbf ea7b 50bf ccd5 3fbd
00000060: 6061 f7bc 3696 88be 3267 14bd 08ea 2fbe
00000070: 786b ffbe 327f 22bd 8539 3dbd 019c 78be
00000080: 0ba4 04bf f965 bfbf 81bf f0bf ffa1 2bbf
00000090: c089 3c3e 2f09 9fbf 4422 53bc fc88 6c3e
000000a0: 2416 c03e 2371 acbe c032 01bf 57dc 383f
000000b0: 0afb b7bc 8e08 60bd 5d9f a0bd 19be e93d
000000c0: 855d a13f fd1d 263f 31aa 013f 949e 863f
000000d0: c8a4 0abe f64f f7be 0e2a 0ebf b432 49bf
000000e0: af5f f0be 28ac 85be 2579 2ebf 2477 2ebf
000000f0: 0823 59be 5e6f 34bd 4ae4 45be cc96 2dbe
00000100: 4480 20bf 1d7c e7bd f3e1 36bf cf8e 1d3e
00000110: 063c c4bf 9943 be3e 3655 2c3e 24a2 833e
00000120: edb2 463e 9f07 923c b0d9 71be d6a9 96be
00000130: 06aa 833b 254c 50be eab2 3e3e f5f5 4bbf
00000140: 6944 f1bc 2c99 be3c e9f7 6c3d fd36 993d
00000150: 85f2 48bd 3282 1e3e 2827 633e f9da 763e
00000160: 9edc 18bd b8ab 7c3e 926a b3bc 6889 cc3d
00000170: 3813 32be 5bf0 953e 4748 b4bd 6f0f 41be
00000180: ac59 70be 56a6 95be 574d 92be fa46 bcbe
00000190: 9e19 a1be cd16 a93e 773d bebe 5983 3cbd
000001a0: 788b dd3c bcc7 103e 0636 ec3e 2d8e 4c3e
000001b0: 86b7 563e 3886 5f3e 5583 1a3e 2954 8d3d
000001c0: 2c61 1b3e b747 fc3e 0c05 aa3d 345f 573b
000001d0: 9a4d bfbd 09bd 69bd b753 9a3e 462c 44be
000001e0: 4753 413d 82bd 583f 70ae 9abe 5b4a 73bf
000001f0: f1a1 123f 09cd 153f 8e2c 583e ec30 c53e
00000200: 1218 7a3e 1598 b33f 5ff2 59be 13ae e4bf
00000210: 21c7 203f a4fe 14bd 5dc7 623e 0633 da3e
00000220: 244e 23bf d85b 20be d868 89be 2f59 eabe
00000230: f41e 863f b2c2 383f 020c 32b9 1e5b 4b3e
00000240: 84fe 553e 2973 a2bd bfc0 2bbc 4f30 333f
00000250: 8b92 513f 30ee 8f3d 0f5b eabd f23f b7be
00000260: 9968 1c3f 86fe 2a3f ddab 923e bb3a e73e
00000270: 47af 293f 0dde 413f df0f cdbd 7aa8 38bd
00000280: 2f16 0ebf 1cab 383f 71bc af3e 1b9c 5dbf
00000290: 7823 7b3f d953 8b3f 9da3 0f3e 4d87 553f
000002a0: 1b6b 96bf 4a71 043f 33a3 053e cddc 8fbf
000002b0: 092d 583f b39a 773d 9407 50bd 367a 783f
000002c0: 7e16 32bf 56ed 3b3d e880 9dbe 486b eabe
000002d0: 4661 003f ccd6 533e a4c3 2ebe 1d99 3f3f
000002e0: 48fb 333f dc90 cfbe 8ee1 2dbd 5b86 34bf
000002f0: 3472 583e ea3d edbd e3ed 15bd ecba 60bc
00000300: 1209 de3e ef49 713f 30a3 9f3e 4ff5 073f
00000310: 1b71 80bd 93ad c93e 280c 90be 2329 c3bd
00000320: e2aa 203f 79fc 313e ff81 8bbd 4998 b03f
00000330: 1af2 81be 51ed 073e ecc0 37be 4f13 22be
00000340: 7541 913f 1da8 f03e 26b6 e83e 881c 8f3f
00000350: b739 c3be 10ac 1dbf ff74 19bf 7815 27bf
00000360: c66a 2ebe 8b21 343e cd0f a23e 2ad3 18bd
00000370: 76f2 bebe be87 d8be 5e02 4ebe 6632 fbbe
00000380: 8179 2bbf 9f74 58be 9401 5cbf 1859 133c
00000390: cbc4 95bf 5dde 46be 63d7 893e 0434 4b3a
000003a0: f493 2cbc fbf0 42bd 91d0 4abe 7baf d7be
000003b0: c3a5 febe 23d0 3bbe 54fb 34be a6c5 d7be
000003c0: 75a0 cebf 4ae5 dd3e b371 1b3f 66be 0abf
000003d0: 7127 343e 865b 173e e23d d3be 33b3 093f
000003e0: a135 e8bf 6bd8 96bb 7cad 673f afb5 b53d
000003f0: 593b 723f 35d0 84be 9c9c 9abf e1fd 753f

bias f4 [10]
1.0804149 -0.6065583 -0.25636438 -0.068454415 -1.3932627 -0.5393904 0.22953509 -0.026000641
-0.9262855 -1.1474028
00000000: 094b 8a3f 6847 1bbf 3142 83be d431 8cbd
00000010: 6f56 b2bf 7d15 0abf 3f0b 6b3e 4cff d4bc
00000020: 0c21 6dbf 18de 92bf

weight f4 [10]
1.5030842 2.1913211 0.10959532 1.3506738 1.0517778 2.0542216 2.16737 1.799611
1.9499725 1.8292586
00000000: 1065 c03f 9b3e 0c40 8373 e03d e1e2 ac3f
00000010: a8a0 863f 5e78 0340 31b6 0a40 a759 e63f
00000020: b398 f93f 2525 ea3f

bias f4 [10]
0.0115151545 0.13464518 0.008009386 0.082106814 0.07930028 0.18912125 0.07049953 -0.013548453
0.0053786305 0.042194612
00000000: 0faa 3c3c 6de0 093e cd39 033c 9e27 a83d
00000010: 2f68 a23d 00a9 413e 0f62 903d 55fa 5dbc
00000020: 393f b03b 42d4 2c3d

running_mean f4 [10]
3.8091857 0.54042524 0.41637623 3.4996142 3.271072 0.787592 3.7374046 1.5987903
0.7084921 3.810183
00000000: b3c9 7340 4f59 0a3f 442f d53e aef9 5f40
00000010: 3e59 5140 a19f 493f a331 6f40 29a5 cc3f
00000020: bd5f 353f 0ada 7340

running_var f4 [10]
11.179653 1.5555086 1.8290931 35.98915 39.95461 2.9000483 31.24518 4.301435
4.362175 59.80516
00000000: dcdf 3241 e81a c73f b91f ea3f e4f4 0f42
00000010: 85d1 1f42 649a 3940 21f6 f941 5ba5 8940
00000020: f096 8b40 7c38 6f42

weight f4 [2, 370]
-0.26865482 -0.8719862 -0.5589029 -0.8137779 -0.53169847 -0.49851143 -0.19654715 -0.4263773
-0.35194832 -0.698287 -0.5023893 -0.6351097 -0.6778278 -0.36933175 -0.18087895 -0.14097136
-0.53678954 -0.6181252 -0.7343668 -0.45113957 -0.6354613 -0.45221996 -0.09460882 -0.4547662
-0.4485684 -0.3097155 -0.00020428402 -0.41361067 -0.47416657 -0.31181145 -0.5432631 -0.43578154
-0.46276128 -0.63168377 -0.2521819 -0.6352862 -0.5862268 0.69886696 0.49880663 0.39538822
0.50837463 0.44817278 0.47419113 0.50902385 0.6542169 0.24543458 0.66455823 0.42699054
0.8736588 0.33403724 0.75279635 0.41479978 0.6338065 0.8264821 0.7288005 0.9613209
0.6206575 0.88777107 0.98523486 0.6280036 0.68634534 0.8865804 0.6826633 0.80903995
0.75853205 0.6902692 0.79805684 0.58274865 0.60389245 0.6872727 0.96609503 0.85377675
0.51298064 0.81372815 -0.24758686 0.11741697 -0.13646959 -0.25545824 0.051666163 -0.22350861
0.18342833 0.087322116 -0.14707299 -0.10735872 -0.023729242 0.028042182 0.109855145 0.09482509
-0.079489015 0.12177853 0.08045646 0.05405261 -0.058000717 -0.0028807714 -0.012036333 0.13264374
-0.17931631 -0.13428268 0.021394495 -0.08063891 -0.045236792 0.03658938 -0.0047134575 0.25244454
0.07479583 -0.16301398 0.21572803 0.040799968 0.04970292 0.17913161 -0.29483348 -0.26846242
-0.6411966 -0.83474237 -0.93908495 -0.8193185 -0.5611318 -0.12687816 -0.33782917 -0.99615985
-0.6469855 -0.5479187 -0.46274546 -0.37042984 -0.11053665 -0.14829491 -0.5471479 -0.03366444
-0.51681364 -0.6548493 -0.39778644 -0.30506498 -0.3863513 -0.21691802 -0.24445488 -0.34130943
-0.48422247 -0.47521892 -0.065022856 0.18724373 0.034232907 -0.48786443 -0.63110137 -0.36567807
-0.6924238 -0.42543787 -0.34989226 -0.10425595 -0.46098185 -0.42933434 -0.23188862 -0.59402996
-0.9117318 -0.5848305 -0.30313638 -0.16303915 -0.93638676 -0.27638313 -0.27979067 -0.3104521
-0.49350554 -0.11577981 0.0488917 -0.18301468 0.06161264 -0.509681 -0.50221896 -0.2545908
-0.18569396 -0.05895113 -0.3986446 -0.5256173 -0.37256426 -0.12526122 -0.45809346 0.14435068
0.0011860321 0.09118591 -0.66412675 -0.57045746 -0.17567468 -0.6440915 -0.55296546 -0.23300643
-0.0704872 0.3286052 0.3133997 0.48072547 0.74250734 0.4928405 0.40982035 0.15617889
0.28596663 0.2528813 0.4004222 0.4120331 0.52214944 0.5630694 0.6713008 0.7294655
0.7219347 0.6766599 0.6647719 1.0070004 0.8703912 0.7441379 1.1426965 0.16954845
0.56520236 0.91173357 0.8993491 1.113792 0.5979759 0.43436214 0.70496297 0.49086404
0.6592886 0.42867616 0.5199758 0.4142404 0.6283778 0.81453115 -0.6766605 -0.643404
-0.31396317 -0.6586813 -1.0139478 -0.58632886 -0.6103768 -0.2514196 -0.81709254 -0.92843276
-0.70644796 -0.89145774 -0.639493 -0.3033267 -0.426687 -0.5570809 -0.32629958 -0.43161163
-0.81020087 -0.7055403 -0.23477606 -0.45452887 -0.84199506 -0.387808 -0.8048299 -0.4475116
-0.6589174 -0.20473006 -0.5632697 -0.26200297 -0.6439991 -1.0556456 -0.615372 -1.0358225
00000000: 208d 89be 7d3a 5fbf 4314 0fbf c053 50bf
00000010: 641d 08bf e43c ffbe a843 49be 204e dabe
00000020: 9232 b4be f0c2 32bf 969c 00bf 8d96 22bf
00000030: 1f86 2dbf 0d19 bdbe 5538 39be cc5a 10be
00000040: 0a6b 09bf 743d 1ebf 76ff 3bbf c4fb e6be
00000050: 97ad 22bf 6089 e7be 45c2 c1bd 1ed7 e8be
00000060: c2aa e5be 0893 9ebe 1335 56b9 c7c4 d3be
00000070: f6c5 f2be c0a5 9fbe 4a13 0bbf c21e dfbe
00000080: 0cef ecbe 07b6 21bf fc1d 81be 1ea2 22bf
00000090: f612 16bf f2e8 323f 9563 ff3e 5370 ca3e
000000a0: d724 023f e776 e53e 2ec9 f23e 634f 023f
000000b0: c27a 273f 3453 7b3e 7d20 2a3f 819e da3e
000000c0: 1aa8 5f3f ee06 ab3e 43b7 403f a360 d43e
000000d0: 2541 223f 5594 533f ab92 3a3f 2019 763f
000000e0: 69e3 1e3f f744 633f 5a38 7c3f d8c4 203f
000000f0: 54b4 2f3f eff6 623f 06c3 2e3f 3e1d 4f3f
00000100: 282f 423f 7bb5 303f 744d 4c3f 042f 153f
00000110: b298 1a3f 1bf1 2f3f 0152 773f 1d91 5a3f
00000120: b352 033f 7d50 503f 6987 7dbe 4f78 f03d
00000130: afbe 0bbe 6ccb 82be e69f 533d 71df 64be
00000140: a3d4 3b3e f0d5 b23d 4d9a 16be e3de dbbd
00000150: d463 c2bc b8b8 e53c bcfb e03d a833 c23d
00000160: 23cb a2bd 0667 f93d 5bc6 a43d 4566 5d3d
00000170: 2992 6dbd 53cb 3cbb 0a34 45bc c3d3 073e
00000180: b29e 37be 6681 09be 8243 af3c 0326 a5bd
00000190: 374a 39bd bfde 153d 5973 9abb 6940 813e
000001a0: 8e2e 993d 23ed 26be cfe7 5c3e de1d 273d
000001b0: 4a95 4b3d 476e 373e 6af4 96be e873 89be
000001c0: 7625 24bf adb1 55bf df67 70bf dbbe 51bf
000001d0: 55a6 0fbf 59ec 01be f2f7 acbe 5504 7fbf
000001e0: d7a0 25bf 6644 0cbf f9ec ecbe fba8 bdbe
000001f0: 0a61 e2bd 9fda 17be e311 0cbf b9e3 09bd
00000200: e64d 04bf 34a4 27bf aaaa cbbe 7a31 9cbe
00000210: d6cf c5be c21f 5ebe 6152 7abe 1cc0 aebe
00000220: 02ec f7be e54f f3be b42a 85bd d2bc 3f3e
00000230: ce37 0c3d 5ec9 f9be dc8f 21bf 283a bbbe
00000240: b042 31bf fed2 d9be 1425 b3be 2584 d5bd
00000250: d005 ecbe b6d1 dbbe 3674 6dbe 5912 18bf
00000260: 4167 69bf 74b7 15bf b134 9bbe bcf3 26be
00000270: 0bb7 6fbf 1782 8dbe b940 8fbe 94f3 9ebe
00000280: c2ac fcbe f71d edbd aa42 483d 3368 3bbe
00000290: 895d 7c3d 747a 02bf 6c91 00bf ba59 82be
000002a0: 8f26 3ebe bd76 71bd 251b ccbe db8e 06bf
000002b0: bec0 bebe 7a44 00be 3a8b eabe aad0 133e
000002c0: a274 9b3a aebf ba3d 3604 2abf 8009 12bf
000002d0: 10e4 33be 2ee3 24bf 258f 0dbf 3d99 6ebe
000002e0: 985b 90bd f13e a83e ed75 a03e a621 f63e
000002f0: f614 3e3f 9755 fc3e f9d3 d13e 5ced 1f3e
00000300: 386a 923e a879 813e 2304 cd3e 01f6 d23e
00000310: 96ab 053f 5125 103f 5fda 2b3f 40be 3a3f
00000320: b6d0 383f 9539 2d3f 7e2e 2a3f 64e5 803f
00000330: f5d1 5e3f d27f 3e3f e143 923f 1c9e 2d3e
00000340: 1ab1 103f 5f67 693f be3b 663f bc90 8e3f
00000350: f314 193f b764 de3e 7478 343f 8852 fb3e
00000360: 23c7 283f 717b db3e 221d 053f 5117 d43e
00000370: 5edd 203f 1d85 503f 9f39 2dbf 20b6 24bf
00000380: c8bf a0be 569f 28bf 0bc9 81bf a619 16bf
00000390: a741 1cbf 12ba 80be fa2c 51bf c5ad 6dbf
000003a0: c6d9 34bf 9336 64bf d0b5 23bf a34d 9bbe
000003b0: b876 dabe db9c 0ebf bd10 a7be 33fc dcbe
000003c0: 5369 4fbf 4a9e 34bf 2369 70be 02b8 e8be
000003d0: fd8c 57bf c58e c6be 5509 4ebf 3e20 e5be
000003e0: d0ae 28bf c2a4 51be 7132 10bf 4125 86be
000003f0: 20dd 24bf 651f 87bf 0589 1dbf d595 84bf

bias f4 [2]
0.043683745 -0.042573564
00000000: baed 323d 9e61 2ebd
